Model: "sequential"
_________________________________________________________________
Layer (type)                 Output Shape              Param #   
=================================================================
conv2d (Conv2D)              (None, 332, 332, 32)      896       
_________________________________________________________________
activation (Activation)      (None, 332, 332, 32)      0         
_________________________________________________________________
max_pooling2d (MaxPooling2D) (None, 166, 166, 32)      0         
_________________________________________________________________
conv2d_1 (Conv2D)            (None, 166, 166, 50)      40050     
_________________________________________________________________
activation_1 (Activation)    (None, 166, 166, 50)      0         
_________________________________________________________________
max_pooling2d_1 (MaxPooling2 (None, 83, 83, 50)        0         
_________________________________________________________________
flatten (Flatten)            (None, 344450)            0         
_________________________________________________________________
dense (Dense)                (None, 500)               172225500 
_________________________________________________________________
activation_2 (Activation)    (None, 500)               0         
_________________________________________________________________
dense_1 (Dense)              (None, 10)                5010      
_________________________________________________________________
activation_3 (Activation)    (None, 10)                0         
=================================================================
Total params: 172,271,456
Trainable params: 172,271,456
Non-trainable params: 0
_________________________________________________________________
